Week5/results/model.pth (torch, 90175 bytes, 8 tensors)

conv1.weight f4 [10, 1, 5, 5]
0.11307512 -0.12822278 -0.1895666 -0.1180002 -0.3233376 0.2114153 0.028956113 0.07408733
0.0030066776 -0.04158773 0.18009329 0.2093637 0.28447485 0.12920757 0.10783967 0.0012566743
0.1320953 0.14159995 0.31291655 0.20078464 -0.19014597 -0.23288171 -0.16422062 -0.15618646
-0.052598186 0.118726246 0.30105984 0.11971143 -0.3647135 -0.10532073 0.19872661 0.36603168
0.09683811 -0.3610831 -0.35051012 0.12127446 0.38895914 -0.09117231 -0.105243735 -0.26083773
0.38104337 0.090107955 0.1441413 -0.09832775 -0.20570822 0.25458807 0.06300977 0.15065274
-0.04478048 -0.037117913 -0.33595547 -0.1922171 0.1152248 0.07776368 0.32085648 0.040550392
-0.020112228 0.037387397 0.34521785 0.18507883 -0.14121237 0.21641514 0.3469515 0.35993943
-0.11386627 0.045364235 0.12925543 0.17714399 -0.1121739 -0.22250502 0.15223321 0.021608694
0.12975754 -0.035585716 -0.037109643 0.14809588 0.22561368 0.25754556 -0.051508397 0.18314159
-0.13432504 -0.08793461 0.080255285 0.04660569 0.194563 -0.13359639 -0.1952672 0.08663399
-0.058354486 0.13199453 0.05262166 -0.21047786 -0.09434142 -0.056535766 -0.19462712 -0.08095201
0.026909145 -0.08313144 -0.18212089 -0.13103478 0.287045 0.06444125 0.18904202 0.10158055
-0.16933383 -0.06978723 0.41464847 0.20283161 0.19430396 0.06621095 0.19726296 0.5082795
0.4557453 -0.031043805 0.12867063 0.24526592 0.37853417 0.27137855 -0.043107934 -0.022474626
-0.15563318 0.04769113 0.2282568 -0.07357263 0.21006902 -0.117532454 -0.22986436 -0.054353252
0.28097758 0.3697594 -0.03662322 0.137618 0.32367823 0.40352124 0.28766412 0.2606513
0.20600098 0.13028297 -0.0009538495 -0.12757486 -0.062107492 -0.04692592 -0.1399766 0.1371146
0.09006269 -0.094000064 -0.010993884 0.012066108 0.1471149 0.184081 -0.08374205 0.15783782
-0.040066574 -0.018525722 -0.21446271 -0.17813979 -0.17440233 -0.111840665 0.13309325 -0.09367481
-0.18203107 0.05294003 0.07624984 0.14389342 -0.1248656 0.05909107 -0.04874468 0.010790948
-0.11108596 -0.057106417 -0.018503731 0.14114851 0.11568701 0.14594577 0.29098582 0.16803372
0.13253465 0.042446204 -0.13869275 0.14121649 -0.13237827 -0.09826736 -0.24963184 -0.19902302
-0.28445873 0.123659104 -0.21461046 -0.22427432 -0.14293009 -0.20181128 0.14512363 0.05990899
0.0349276 0.07991225 0.2302154 -0.023259876 0.32968473 0.39328492 0.37413618 -0.010657809
0.029668527 -0.16352992 0.2017641 -0.0006166069 0.21281575 0.0054410966 -0.0127619915 0.046983507
0.1677431 0.2526576 0.05980489 0.0780477 -0.13972768 0.2720525 0.36673427 0.14364584
0.098632656 -0.17751612 -0.033496413 0.32156676 -0.3116165 0.020724025 -0.27717754 -0.21496746
0.11844479 -0.13439776 -0.010535234 0.2688377 0.34109747 0.34583393 -0.06995115 -0.1684129
0.31342795 0.13735294 0.06925994 -0.03810867 -0.19759406 0.16735283 0.20501179 -0.08628511
-0.24346912 -0.074268535 0.06880651 0.025071789 -0.08783882 -0.0729239 -0.27103367 -0.1930679
-0.13878438 0.13831863
00000000: ee93 e73d d54c 03be bf1d 42be 17aa f1bd
00000010: 828c a5be 417d 583e 5f35 ed3c 19bb 973d
00000020: ae0b 453b e557 2abd 606a 383e 7063 563e
00000030: b0a6 913e fd4e 043e 0bdb dc3d feb6 a43a
00000040: fe43 073e 94ff 103e 9936 a03e 7d9a 4d3e
00000050: a0b5 42be 8b78 6ebe 7329 28be 58ef 1fbe
00000060: 3271 57bd bf26 f33d 8424 9a3e 442b f53d
00000070: babb babe 65b2 d7bd fd7e 4b3e 8168 bb3e
00000080: 0f53 c63d e2df b8be 1076 b3be be5e f83d
00000090: a725 c73e 8cb8 babd 078a d7bd 868c 85be
000000a0: 1e18 c33e 858a b83d c799 133e 0f60 c9bd
000000b0: 2da5 52be 5e59 823e 440b 813d b644 1a3e
000000c0: bd6b 37bd f408 18bd 5b02 acbe 8fd4 44be
000000d0: fbfa eb3d 9042 9f3d 4d47 a43e 2b18 263d
000000e0: 66c2 a4bc 8723 193d 65c0 b03e 4e85 3d3e
000000f0: fa99 10be ee9b 5d3e a1a3 b13e fb49 b83e
00000100: b832 e9bd d9cf 393d 895b 043e 3c65 353e
00000110: 6ebb e5bd 5bd8 63be 06e3 1b3e b704 b13c
00000120: 29df 043e 54c2 11bd 4800 18bd 72a6 173e
00000130: 4607 673e 03dd 833e 78fa 52bd 7889 3b3e
00000140: 818c 09be 1017 b4bd e25c a43d 9ce5 3e3d
00000150: 863b 473e 7ecd 08be 20f4 47be 296d b13d
00000160: 1d05 6fbd 9329 073e cf89 573d 8287 57be
00000170: 1336 c1bd 0c92 67bd 554c 47be 2bca a5bd
00000180: 9170 dc3c d140 aabd e67d 3abe fb2d 06be
00000190: 90f7 923e c6f9 833d 3b94 413e 7709 d03d
000001a0: d965 2dbe 9bec 8ebd ce4c d43e 17b3 4f3e
000001b0: 9ef7 463e 9b99 873d 4dff 493e 9b1e 023f
000001c0: 7357 e93e 944f febc 3cc2 033e fd26 7b3e
000001d0: 3bcf c13e 21f2 8a3e f291 30bd b51c b8bc
000001e0: 4e5e 1fbe c657 433d 27bc 693e 3fad 96bd
000001f0: 551c 573e dbb4 f0bd 9061 6bbe 84a1 5ebd
00000200: 4bdc 8f3e 1b51 bd3e 3b02 16bd bceb 0c3e
00000210: 27b9 a53e 569a ce3e b648 933e 1674 853e
00000220: ecf1 523e e668 053e c20b 7aba fca2 02be
00000230: 6d64 7ebd 6535 40bd 0756 0fbe c567 0c3e
00000240: ca72 b83d 1b83 c0bd b11f 34bc edb0 453c
00000250: 4aa5 163e bb7f 3c3e f480 abbd 3da0 213e
00000260: d91c 24bd 41c3 97bc 1d9c 5bbe 476a 36be
00000270: 8696 32be b80c e5bd 9949 083e 94d8 bfbd
00000280: 5a66 3abe a5d7 583d e028 9c3d cc58 133e
00000290: 89b9 ffbd 7a09 723d 80a8 47bd 84cc 303c
000002a0: 0981 e3bd 6be8 69bd 2395 97bc 3c89 103e
000002b0: 50ed ec3d cf72 153e 18fc 943e 0811 2c3e
000002c0: 2ab7 073e 12dc 2d3d 7905 0ebe 0e9b 103e
000002d0: 2b8e 07be 6640 c9bd 7d9f 7fbe b1cc 4bbe
000002e0: 93a4 91be fc40 fd3d d8c2 5bbe 2ba8 65be
000002f0: 445c 12be 9ea7 4ebe 4a9b 143e 2163 753d
00000300: 3e10 0f3d 09a9 a33d 96bd 6b3e 7f8b bebc
00000310: 70cc a83e a45c c93e c78e bf3e 179e 2ebc
00000320: 690b f33c 6374 27be 409b 4e3e caa3 21ba
00000330: 5fec 593e 3a4b b23b ac17 51bc c771 403d
00000340: d9c4 2b3e 565c 813e f9f5 743d 79d7 9f3d
00000350: c614 0fbe 774a 8b3e 98c4 bb3e e517 133e
00000360: ebff c93d c9c6 35be 8933 09bd 66a4 a43e
00000370: 338c 9fbe 6ec5 a93c 37ea 8dbe 6e20 5cbe
00000380: 2f93 f23d 919f 09be f99b 2cbc 18a5 893e
00000390: 54a4 ae3e 2511 b13e 8c42 8fbd 6e74 2cbe
000003a0: a179 a03e 40a6 0c3e 28d8 8d3d d617 1cbd
000003b0: 1956 4abe 8a5e 2b3e 9cee 513e 3fb6 b0bd
000003c0: f84f 79be 1a1a 98bd 6dea 8c3d 5a63 cd3c
000003d0: d7e4 b3bd 2059 95bd edc4 8abe 97b3 45be
000003e0: 7e1d 0ebe 66a3 0d3e

conv1.bias f4 [10]
0.19562924 -0.08953134 0.05713706 0.115953185 0.1902464 0.017155282 0.12812749 0.13963972
0.059936304 0.053629268
00000000: 0853 483e 355c b7bd 8d08 6a3d dd78 ed3d
00000010: f4cf 423e 3c89 8c3c da33 033e b7fd 0e3e
00000020: c57f 753d 5daa 5b3d

conv2.weight f4 [20, 10, 5, 5]
0.05392403 0.04475888 -0.0880741 0.028677845 0.040544264 -0.025164405 0.027799822 -0.082021706
0.051991563 -0.015078802 0.045313835 0.037603647 0.0241337 0.05606889 -0.023437504 -0.071829535
-0.06219277 0.013483203 0.0015717708 0.007929391 -0.03182627 0.019400604 0.06674397 0.03696623
-0.017724948 -0.000696497 -0.044894774 0.0029606982 -0.009910411 0.03701959 0.006381734 -0.05064705
0.0248863 0.026808029 -0.011060846 -0.068699144 -0.020364147 0.021686725 -0.022822669 -0.04086909
-0.031709705 0.016873183 0.031708833 -0.028344007 -0.01493508 0.010541262 0.0082543865 0.03698183
-0.034743637 0.030527681 0.025547847 -0.04511222 -0.01213548 0.011363655 0.059319705 -0.07466579
-0.00915345 0.07172513 0.07583566 0.043067217 0.0010205958 0.047158595 0.041245278 0.009077222
0.011340671 -0.025819348 -0.039583497 -0.02385521 -0.07679431 -0.076209866 0.029640753 -0.030373296
-0.020133613 -0.051776666 -0.03348285 -0.012699287 -0.052262004 -0.03894166 -0.00081068993 -0.0032000632
-0.027969154 -0.050508652 -0.055980697 0.04835687 -0.010294551 -0.008593395 -0.025965616 -0.035840917
-0.06818252 -0.035376698 0.06748691 0.05205094 0.0019494044 -0.018988686 0.04085498 0.045073643
0.083436124 0.060573366 0.055636305 0.0050588786 0.006765619 -0.08577964 0.0017915328 0.03583644
0.11780621 0.024518866 -0.082500376 -0.017752487 0.07303452 0.028056582 -0.05297726 0.06655135
0.060748406 -0.0023623332 0.0016712165 -0.036681708 -0.054478783 0.027662933 -0.012116729 -0.043608725
-0.022004722 -0.11458274 -0.05786308 -0.057092965 -0.059910826 0.04613476 0.012383389 0.07506238
0.06559344 -0.008045566 0.0038198025 0.051456563 0.035535153 0.01910412 0.09136246 0.008793688
0.099625714 0.08731273 0.08900244 0.017593091 -0.05448284 0.04325555 -0.0016447782 -0.05577743
-0.08240042 -0.103587285 -0.08341031 -0.08798541 0.028841024 -0.058653604 -0.0007238397 0.018091938
0.026773293 -0.028674668 0.02898596 0.04538137 -0.05123079 0.07029071 -0.036663584 -0.030579595
-0.05516731 0.049249668 0.020524729 0.04889189 -0.017285945 0.033462375 -0.024419095 -0.042742863
0.011646555 -0.021829864 0.009544199 -0.020464644 0.018593105 0.029125616 0.0026677568 -0.042352907
0.055670444 -0.022775505 -0.00077901606 0.07547908 -0.02591201 0.103308186 -0.07273222 0.022300038
-0.004931684 -0.009448197 -0.053652454 0.013191577 -0.022132378 -0.028999249 0.01827649 0.032860696
0.089472465 0.04938664 0.09849917 0.057600614 -0.012949288 -0.017459065 0.039806396 -0.050529
-0.0029393118 -0.06366506 0.050372858 0.038290694 -0.0153827695 0.0047759134 -0.04879287 -0.01919345
0.03275554 -0.0038945375 0.0031508238 0.00804724 0.09103909 0.052197937 0.033958897 0.031646557
-0.06251749 0.0335139 -0.003964173 -0.10537054 -0.020891367 -0.06618023 0.0113828145 -0.0043644574
-0.0034289584 -0.0022232316 -0.08470773 0.073169306 0.04221232 -0.0061869132 0.031341147 -0.049424555
0.022468109 -0.06805524 0.015985882 0.040399715 0.06344307 -0.0033556954 -0.025360113 0.033636592
-0.02752404 -0.015488704 -0.01684613 -0.007704793 -0.041887585 -0.06819343 -0.04016938 -0.038652677
0.050719634 -0.05472719 -0.04899492 0.013438933 -0.055970233 0.030412221 0.03292992 -0.088139705
00000000: 72df 5c3d 1655 373d 3260 b4bd cded ea3c
00000010: be11 263d 9525 cebc 74bc e33c fffa a7bd
00000020: 1bf5 543d 140d 77bc 009b 393d 4806 1a3d
00000030: 0ab4 c53c 7ea8 653d 0200 c0bc 5d1b 93bd
00000040: d9bd 7ebd a7e8 5c3c e003 ce3a 47ea 013c
00000050: 435c 02bd 04ee 9e3c 10b1 883d e769 173d
00000060: e933 91bc 1f95 36ba 95e3 37bd 4608 423b
00000070: 475f 22bc dba1 173d dd1d d13b 4873 4fbd
00000080: 5bde cb3c 839c db3c 8d38 35bc 23b2 8cbd
00000090: b6d2 a6bc 5ca8 b13c 9bf6 babc 5966 27bd
000000a0: 09e2 01bd a139 8a3c 1fe1 013d b131 e8bc
000000b0: 44b2 74bc 42b5 2c3c 683d 073c 427a 173d
000000c0: 584f 0ebd 3015 fa3c b849 d13c 97c7 38bd
000000d0: e4d3 46bc a02e 3a3c 38f9 723d 61ea 98bd
000000e0: 5af8 15bc a0e4 923d ba4f 9b3d 4067 303d
000000f0: 83c5 853a 5f29 413d cff0 283d a1b8 143c
00000100: 39ce 393c 1983 d3bc 4e22 22bd 006c c3bc
00000110: 5646 9dbd eb13 9cbd 2ad1 f23c 6bd1 f8bc
00000120: 3fef a4bc c513 54bd 5025 09bd ac10 50bc
00000130: af10 56bd 4a81 1fbd 7b84 54ba 27b8 51bb
00000140: 911f e5bc 29e2 4ebd 044c 65bd da11 463d
00000150: 7aaa 28bc 50cb 0cbc d8b5 d4bc edcd 12bd
00000160: 47a3 8bbd 28e7 10bd 9436 8a3d 5e33 553d
00000170: 2883 ff3a 298e 9bbc 8d57 273d 249f 383d
00000180: 8fe0 aa3d c71b 783d e5e2 633d f3c4 a53b
00000190: 20b2 dd3b 3cad afbd ded1 ea3a 3bc9 123d
000001a0: 6244 f13d cadb c83c f5f5 a8bd aa6d 91bc
000001b0: 1f93 953d ebd6 e53c affe 58bd 134c 883d
000001c0: 52d3 783d 60d1 1abb b80c db3a 8f3f 16bd
000001d0: 2525 5fbd 609d e23c 3f85 46bc 109f 32bd
000001e0: 3f43 b4bc 5baa eabd d601 6dbd 50da 69bd
000001f0: 0e65 75bd cdf7 3c3d b3e3 4a3c 4eba 993d
00000200: da55 863d 8dd1 03bc a755 7a3b 1ec4 523d
00000210: 4f8d 113d 3e80 9c3c 3e1c bb3d 6713 103c
00000220: 9108 cc3d 04d1 b23d e946 b63d 631f 903c
00000230: 6629 5fbd bb2c 313d 9995 d7ba e076 64bd
00000240: 8dc1 a8bd 9225 d4bd 06d3 aabd b231 b4bd
00000250: 0344 ec3c c33e 70bd 0fc0 3dba 8b35 943c
00000260: aa53 db3c 23e7 eabc f773 ed3c d1e1 393d
00000270: 60d7 51bd 93f4 8f3d 8e2c 16bd 0f82 fabc
00000280: 1ef7 61bd 05ba 493d 7a23 a83c dd42 483d
00000290: 419b 8dbc d80f 093d 8e0a c8bc 2413 2fbd
000002a0: 31d1 3e3c 8bd4 b2bc 465f 1c3c 78a5 a7bc
000002b0: 9150 983c d898 ee3c 88d5 2e3b 3e7a 2dbd
000002c0: b106 643d b293 babc e236 4cba c794 9a3d
000002d0: 6c45 d4bc 3e93 d33d a1f4 94bd 92ae b63c
000002e0: f799 a1bb 9ccc 1abc adc2 5bbd 7c21 583c
000002f0: f64e b5bc d58f edbc 94b8 953c f098 063d
00000300: 573d b73d a549 4a3d efb9 c93d 9fee 6b3d
00000310: 4029 54bc 5006 8fbc 080c 233d 7ff7 4ebd
00000320: 78a1 40bb d462 82bd c553 4e3d b4d6 1c3d
00000330: 0308 7cbc 447f 9c3b 08db 47bd 953b 9dbc
00000340: ac2a 063d 7f3b 7fbb 0d7e 4e3b 92d8 033c
00000350: b472 ba3d 81cd 553d 7c18 0b3d d29f 013d
00000360: 2b09 80bd df45 093d e5e5 81bb 82cc d7bd
00000370: 5f24 abbc 8089 87bd fc7e 3a3c b903 8fbb
00000380: 60b8 60bb a3b3 11bb 3f7b adbd cad9 953d
00000390: d3e6 2c3d 97bb cabb 935f 003d 6771 4abd
000003a0: 0a0f b83c 8c60 8bbd d3f4 823c 2c7a 253d
000003b0: 71ee 813d 3aeb 5bbb 03c0 cfbc 86c6 093d
000003c0: 187a e1bc 55c4 7dbc e500 8abc 7d78 fcbb
000003d0: 5192 2bbd ffa8 8bbd a688 24bd 4552 1ebd
000003e0: 64bf 4f3d 9e29 60bd e6ae 48bd f82e 5c3c
000003f0: 0b41 65bd 0d23 f93c 86e1 063d 9782 b4bd

conv2.bias f4 [20]
0.032369494 -0.022928705 0.041734554 -0.023595756 -0.017166121 -0.040936943 -0.046090525 -0.019376384
-0.051846646 -0.022594955 0.01476905 -0.060999736 -0.05307488 0.068874694 -0.041863106 -0.075229265
-0.008586893 -0.07281258 -0.06942485 0.0026286603
00000000: e095 043d fbd4 bbbc daf1 2a3d e34b c1bc
00000010: f79f 8cbc 7fad 27bd 6bc9 3cbd 39bb 9ebc
00000020: 265d 54bd 0e19 b9bc e3f9 713c dcda 79bd
00000030: 0c65 59bd 2d0e 8d3d a678 2bbd cd11 9abd
00000040: 0ab0 0cbc c31e 95bd 9e2e 8ebd 9a45 2c3b

fc1.weight f4 [50, 320]
-0.068051875 -0.022081142 0.011095782 -0.027575197 0.050175227 -0.03621892 0.034136448 0.0017902607
-0.01738702 0.01673886 0.06637788 0.047575913 -0.0036913666 -0.05604013 0.038794644 0.017022464
-0.0354592 0.01623996 -0.023991356 0.0029021082 0.043460052 -0.0017610694 0.018008865 -0.038734302
0.001699081 -0.0745408 0.024900982 0.00972 -0.022812063 -0.05348161 0.025379522 0.040159006
-0.029975565 -0.0046847668 -0.04023745 -0.048320137 0.0008439259 0.024075514 0.051138394 0.06604114
0.045622196 -0.0037739465 -0.03621737 -0.03842591 -0.0155655425 -0.03276604 0.045101095 -0.03247969
0.028582355 0.07914516 0.03000673 0.014257567 -0.045466017 -0.013297014 -0.028058607 0.04894195
-0.041515287 -0.05664585 -0.063706934 -0.061900053 -0.04714129 -0.022433206 -0.00069677975 -0.08808429
0.0040472588 0.005044097 -0.0019648562 -0.019756565 -0.025645668 -0.033550728 -0.042015824 -0.014877746
-0.007407893 -0.027942121 0.03411273 0.04182145 -0.019737812 0.032452684 0.012130368 -0.004071339
-0.015149007 0.06298437 0.0078531895 -0.070501246 -0.02541327 0.0006301229 -0.04681375 -0.02212394
-0.010558582 0.004783229 0.014633631 -0.022235053 -0.015644545 0.04218506 0.06673531 -0.015522364
0.0068385815 0.023155227 -0.0050370153 -0.011880117 0.06331083 -0.031425197 -0.0262592 0.053196047
0.001187075 -0.04606428 0.057169765 0.055321116 0.034808185 0.012271055 0.023766425 0.038733624
0.023829581 -0.016856007 0.09830767 0.0052454644 0.009977479 0.012557636 0.010748006 0.021467641
0.022755142 -0.00018660295 -0.085095435 0.0025097367 -0.0051309513 -0.050237793 -0.044798054 0.015378137
-0.0415713 -0.0052103717 0.04149575 -0.020619605 0.024049593 0.044874873 0.050389897 0.02981605
0.023777017 -0.036338042 -0.03923113 0.020776901 -0.013297351 0.034235355 -0.041402977 -0.02941215
-0.060871117 -0.060025755 -0.057395782 -0.010432717 0.04084868 -0.0102534965 0.0033979572 -0.045314018
0.024445018 -0.016598951 -0.00018039542 0.062672205 0.02522324 0.053400706 0.033755273 0.036188897
-0.011974344 -0.026276559 -0.04755063 0.001272494 -0.0002575729 0.0011027055 0.07566637 0.006942476
-0.059832793 0.031775694 -0.005239904 0.059591327 0.042693343 0.017431898 0.056240026 -0.012726266
-0.021250023 -0.123407654 -0.08335796 -0.08184885 0.0044188416 0.04419753 -0.013299011 -0.076428674
0.039313436 -0.033015713 0.010536478 0.021034842 0.017342286 0.022727832 0.010425858 0.07150928
-0.03497514 0.017517958 -0.007456033 0.009762804 0.013003787 0.042509787 0.033635985 0.024683027
-0.008000151 -0.071659565 -0.021865414 0.005421086 0.028111244 0.0033980773 0.01735189 -0.028403059
-0.030785281 0.06716117 0.043080576 0.032048505 0.035299014 -0.043040488 -0.0024880252 -0.015457006
-0.082556404 0.0037169403 0.0043600197 -0.046119023 -0.10007102 -0.0007546049 -0.004681717 -0.06711431
0.020233998 -0.01987494 -0.090039164 -0.088557854 0.013666577 -0.060355913 -0.0432815 -0.00043605678
-0.02886107 0.076579675 0.012155939 0.022266703 0.013121743 0.04554398 -0.0098920865 0.065734275
0.024844386 -0.0045062224 -0.093820885 -0.09244877 -0.058026135 0.002034812 -0.0019918107 0.028818918
0.03289147 0.034756586 0.05452491 0.004737428 0.04767991 -0.021149935 -0.023584496 -0.049527552
00000000: c85e 8bbd 83e3 b4bc 15cb 353c 61e5 e1bc
00000010: 8a84 4d3d 4a5a 14bd a9d2 0b3d 2ea7 ea3a
00000020: 396f 8ebc ef1f 893c 20f1 873d f6de 423d
00000030: dbea 71bb 568a 65bd 22e7 1e3d b272 8b3c
00000040: ab3d 11bd aa09 853c 8589 c4bc 4c31 3e3b
00000050: 2b03 323d afd3 e6ba 5487 933c dca7 1ebd
00000060: b3b3 de3a d9a8 98bd 25fd cb3c a340 1f3c
00000070: 5de0 babc 880f 5bbd b7e8 cf3c c57d 243d
00000080: 518f f5bc ac82 99bb 06d0 24bd 56eb 45bd
00000090: e93a 5d3a 033a c53c 7e76 513d 9440 873d
000000a0: 57de 3a3d 5154 77bb aa58 14bd 7d64 1dbd
000000b0: 9e06 7fbc af35 06bd edbb 383d 6c09 05bd
000000c0: 8b25 ea3c dc16 a23d add0 f53c 9298 693c
000000d0: 933a 3abd b8db 59bc 2adb e5bc 5b77 483d
000000e0: ef0b 2abd 7b05 68bd c878 82bd e98a 7dbd
000000f0: 3a17 41bd d8c5 b7bc 19a8 36ba 8965 b4bd
00000100: de9e 843b f448 a53b d1c4 00bb 85d8 a1bc
00000110: dd16 d2bc 7d6c 09bd c918 2cbd cac1 73bc
00000120: e9bd f2bb e0e6 e4bc cab9 0b3d f84c 2b3d
00000130: 31b1 a1bc 1bed 043d 73be 463c de68 85bb
00000140: 8a33 78bc f3fd 803d aaaa 003c f562 90bd
00000150: 7d2f d0bc d52e 253a c6bf 3fbd 443d b5bc
00000160: e7fd 2cbc a2bc 9c3b e6c1 6f3c 4926 b6bc
00000170: fd28 80bc 3eca 2c3d 86ac 883d 8351 7ebc
00000180: 2e16 e03b 08b0 bd3c 8c0d a5bb d2a4 42bc
00000190: 1ca9 813d b5b7 00bd 891d d7bc 19e4 593d
000001a0: a197 9b3a e6ad 3cbd d82a 6a3d 6598 623d
000001b0: 0793 0e3d 890c 493c ceb1 c23c 26a7 1e3d
000001c0: 4136 c33c 9c15 8abc 8855 c93d 25e2 ab3b
000001d0: 9578 233c 8bbe 4d3c 6818 303c e8dc af3c
000001e0: fe68 ba3c d9aa 43b9 8446 aebd 657a 243b
000001f0: 8a21 a8bb 25c6 4dbd 2a7e 37bd 95f4 7b3c
00000200: ab46 2abd c4bb aabb 73f7 293d 72ea a8bc
00000210: a703 c53c b7ce 373d a365 4e3d ca40 f43c
00000220: 05c8 c23c 33d7 14bd d2b0 20bd 5234 aa3c
00000230: 22dd 59bc 5f3a 0c3d 2b96 29bd c0f1 f0bc
00000240: fe53 79bd 91dd 75bd d717 6bbd fded 2abc
00000250: f250 273d 48fe 27bc 43b0 5e3b 319b 39bd
00000260: eb40 c83c 86fa 87bc 8728 3db9 495a 803d
00000270: f8a0 ce3c b3ba 5a3d f842 0a3d cf3a 143d
00000280: 0a30 44bc f041 d7bc 73c4 42bd d0c9 a63a
00000290: d90a 87b9 a888 903a f8f6 9a3d b67d e33b
000002a0: 3b13 75bd 3b27 023d 80b3 abbb 0916 743d
000002b0: 37df 2e3d 57cd 8e3c f15b 663d d481 50bc
000002c0: 8714 aebc 27bd fcbd 94b7 aabd 5fa0 a7bd
000002d0: eecb 903b 7808 353d 18e4 59bc a386 9cbd
000002e0: 2007 213d 7c3b 07bd 31a1 2c3c 4351 ac3c
000002f0: 6911 8e3c b82f ba3c 38d1 2a3c 7573 923d
00000300: 1842 0fbd d281 8f3c bd51 f4bb 2bf4 1f3c
00000310: d60d 553c be1e 2e3d e3c5 093d 0f34 ca3c
00000320: 1113 03bc 40c2 92bd 191f b3bc 5ea3 b13b
00000330: 8d49 e63c 47b2 5e3b 8d25 8e3c 88ad e8bc
00000340: 6a31 fcbc cc8b 893d 4275 303d 4b45 033d
00000350: b395 103d 394b 30bd 230e 23bb 623f 7dbc
00000360: 5513 a9bd e997 733b 7fde 8e3b 4de7 3cbd
00000370: 09f2 ccbd add0 45ba 1769 99bb 3a73 89bd
00000380: c5c1 a53c c5d0 a2bc 7466 b8bd d25d b5bd
00000390: c7e9 5f3c c337 77bd f147 31bd 8d9e e4b9
000003a0: 0d6e ecbc ced5 9c3d b429 473c a968 b63c
000003b0: 94fc 563c 538c 3a3d 6b12 22bc b19f 863d
000003c0: 7486 cb3c efa8 93bb 2a25 c0bd c855 bdbd
000003d0: d0ac 6dbd 7b5a 053b 0a89 02bb a715 ec3c
000003e0: 35b9 063d ec5c 0e3d 8355 5f3d 6d3c 9b3b
000003f0: 024c 433d a142 adbc 4634 c1bc 67dd 4abd

fc1.bias f4 [50]
0.046082333 0.03941079 0.001147998 -0.005787408 0.022061585 -0.00618902 0.0031972674 -0.030644614
0.0241851 0.009266035 0.02212764 0.0528 -0.025955016 -0.0003558207 0.0051217545 -0.0399341
0.06613726 0.027829323 0.07588992 -0.04342954 0.033064876 0.022633426 -0.029794734 0.04300085
0.045818556 -0.007467559 0.07919608 -0.02272248 -0.03631597 -0.03181661 -0.02428361 0.042092104
0.009326942 -0.03000622 -0.04082094 0.0874306 0.010399671 -0.054067783 0.037779838 -0.02973316
0.023704652 0.07543348 0.039934754 -0.035229582 -0.023239821 0.028438034 -0.039781872 -0.04681735
0.05733178 0.04296397
00000000: d4c0 3c3d 356d 213d 6c78 963a 4ca4 bdbb
00000010: 7fba b43c 43cd cabb 3f89 513b 6a0a fbbc
00000020: d51f c63c 91d0 173c 0645 b53c d044 583d
00000030: 9d9f d4bc 728d bab9 64d4 a73b f091 23bd
00000040: f972 873d 52fa e33c 2d6c 9b3d 2ce3 31bd
00000050: 096f 073d bc69 b93c 1614 f4bc a921 303d
00000060: 3dac 3b3d 6db2 f4bb 8e31 a23d 7f24 babc
00000070: 0ec0 14bd 2252 02bd 6cee c6bc c568 2c3d
00000080: 08d0 183c 9bcf f5bc dc33 27bd d00e b33d
00000090: 6263 2a3c 2e76 5dbd 08bf 1a3d f592 f3bc
000000a0: 4230 c23c de7c 9a3d a092 233d e54c 10bd
000000b0: 7061 bebc e1f6 e83c 51f2 22bd 8dc3 3fbd
000000c0: bbd4 6a3d fdfa 2f3d

fc2.weight f4 [10, 50]
0.18444732 -0.09831228 0.111502714 0.14701581 -0.10709148 -0.031295188 -0.19146325 -0.08644359
-0.0700514 -0.12812096 -0.21555284 -0.10173955 -0.08408299 0.16397114 0.22500987 0.14837718
0.10765345 0.22891234 0.12010876 -0.00022144102 -0.088306665 -0.14008719 -0.116716444 -0.2337081
-0.11211226 -0.22345506 -0.21262679 -0.23915863 0.046708886 0.25531405 -0.17130385 -0.09124885
0.20554386 0.09442747 -0.13041556 0.17382294 0.16901144 0.074884124 -0.013494089 -0.13778658
-0.15816838 -0.19598047 0.17077069 -0.11414669 -0.050627556 0.2273351 -0.086395815 -0.06248094
0.13803515 -0.025533415 -0.08575813 0.19589418 -0.24601421 0.04949286 0.16878065 0.15316567
-0.2291778 0.122360386 -0.021313867 -0.15359132 0.16315693 0.18338215 -0.083926596 -0.16122991
-0.018556388 -0.22795247 0.06931465 -0.071015805 -0.2226104 0.01092551 -0.14102629 -0.0013867879
0.13915733 0.14372134 0.1505299 -0.24156506 -0.2756427 0.18189774 0.15892601 0.04493921
0.18773028 -0.11223652 -0.18679333 -0.20975165 0.13143253 0.050469816 -0.14099476 -0.09864258
0.16180483 0.19169514 -0.096258745 0.1526216 -0.09047103 -0.23663707 0.13768107 -0.16865323
-0.16759336 0.19128135 -0.2259685 0.07703932 -0.01362071 -0.064035654 -0.05292588 0.040903304
-0.12572564 0.1417893 0.11308302 -0.010689978 0.21477383 0.03357842 -0.012925274 0.23071142
0.09591236 0.14537054 0.19444963 0.11634315 0.030790806 -0.053580787 -0.15704703 -0.15382546
-0.040856205 0.10948218 -0.15708086 -0.20670484 -0.112810105 -0.06782411 -0.15725881 0.054679
-0.2025683 -0.013062826 -0.14609934 -0.10677376 0.033355966 -0.10841817 0.15175344 0.14799777
-0.10774435 -0.13902497 0.15313971 0.015725626 0.13425304 0.18174455 -0.09329806 0.007735051
0.090841964 0.2188871 0.0132634165 0.16661794 -0.14061886 0.14166601 -0.038461387 0.21833183
0.12473113 -0.12525691 -0.049275186 -0.19357167 0.111003034 -0.004866032 -0.0061721196 0.015483415
-0.106031336 0.23825505 -0.12202428 0.006568546 0.05710548 -0.05321028 -0.073840834 0.010386599
-0.08651431 0.15156202 0.19336988 0.25720766 0.109277554 -0.07429755 -0.17826703 -0.14447443
0.1407997 -0.06529539 0.20380296 -0.13145058 -0.26517653 0.20578133 -0.13481508 0.13665517
0.134458 0.10561475 0.10871348 -0.005471419 -0.22529228 -0.034402587 0.14843358 0.18072584
-0.16034412 0.05924597 0.10249606 0.0073628174 -0.094914995 -0.0508484 -0.13882747 0.12998395
-0.0526874 -0.03564423 -0.07218576 0.060350906 0.10238449 0.19258802 0.17165795 -0.1184674
-0.08852519 -0.12862884 0.22592035 0.0188533 0.23023124 -0.19598098 -0.074412 0.156409
-0.20996752 -0.1578936 -0.10273835 -0.09383352 -0.15040284 -0.15511267 0.1990487 0.17230879
0.17417155 0.20942156 0.07238051 -0.021539975 -0.017117476 -0.062217105 0.16692577 0.19426231
-0.16850805 -0.24082197 -0.12869479 -0.17847008 -0.07986411 0.29916352 0.100307345 -0.056734454
-0.20944363 -0.12329674 0.022089612 0.17615378 -0.11612722 -0.024150837 -0.11139575 -0.16894838
0.17045072 -0.17920235 0.067091376 -0.06257778 0.07114915 -0.19135629 0.0150232 -0.09462402
00000000: c2df 3c3e f357 c9bd 895b e43d 508b 163e
00000010: c752 dbbd 622f 00bd f10e 44be 5609 b1bd
00000020: 1c77 8fbd 2432 03be e2b9 5cbe d35c d0bd
00000030: b433 acbd 0de8 273e fd68 663e 30f0 173e
00000040: 6979 dc3d ff67 6a3e 95fb f53d 9f32 68b9
00000050: 20da b4bd 0473 0fbe 0809 efbd 2d51 6fbe
00000060: 1d9b e5bd 67d1 64be d6ba 59be 00e6 74be
00000070: d151 3f3d 86b8 823e 476a 2fbe ade0 babd
00000080: 177a 523e 3063 c13d a88b 05be a4fe 313e
00000090: 5611 2d3e d95c 993d 5016 5dbc ed17 0dbe
000000a0: e4f6 21be 1baf 48be 83de 2e3e bdc5 e9bd
000000b0: d75e 4fbd 88ca 683e 4af0 b0bd 04ec 7fbd
000000c0: 1659 0d3e 742b d1bc f5a1 afbd 7c98 483e
000000d0: 26eb 7bbe 06b9 4a3d d6d4 2c3e 76d7 1c3e
000000e0: 96ad 6abe 1598 fa3d 6b9a aebc 0b47 1dbe
000000f0: 9c12 273e 88c8 3b3e b5e1 abbd 7419 25be
00000100: 9103 98bc 5f6c 69be d7f4 8d3d bc70 91bd
00000110: fbf3 63be e900 333c 3269 10be e1c4 b5ba
00000120: 427f 0e3e b02b 133e 8324 1a3e d55c 77be
00000130: 0a21 8dbe 6743 3a3e 80bd 223e 2d12 383d
00000140: 5e3c 403e 43dc e5bd c046 3fbe 23c9 56be
00000150: 4096 063e 70b9 4e3d ee60 10be 1f05 cabd
00000160: 2ab0 253e bb4b 443e 4e23 c5bd d648 1c3e
00000170: e048 b9bd fd50 72be 44fc 0c3e 6fb3 2cbe
00000180: 989d 2bbe 42df 433e 4964 67be cac6 9d3d
00000190: 6629 5fbc 2025 83bd cfc8 58bd 398a 273d
000001a0: 39be 00be 3731 113e 1298 e73d 0425 2fbc
000001b0: aced 5b3e 8689 093d 87c4 53bc 9d3f 6c3e
000001c0: b36d c43d 04dc 143e ce1d 473e 5145 ee3d
000001d0: 003d fc3c 8777 5bbd f0d0 20be 6c84 1dbe
000001e0: d658 27bd 3138 e03d ced9 20be 6faa 53be
000001f0: fc08 e7bd 5ee7 8abd 7408 21be 16f7 5f3d
00000200: 106e 4fbe 7705 56bc 119b 15be 33ac dabd
00000210: 44a0 083d 580a debd 4165 1b3e ba8c 173e
00000220: 12a9 dcbd 905c 0ebe a8d0 1c3e 07d3 803c
00000230: a179 093e 3e1b 3a3e 0e13 bfbd 5076 fd3b
00000240: 5a0b ba3d f123 603e cd4e 593c e59d 2a3e
00000250: 64fe 0fbe e510 113e b089 1dbd 6192 5f3e
00000260: 0973 ff3d 5943 00be c7d4 49bd a737 46be
00000270: 8f55 e33d 3c73 9fbb 7e3f cabb 26ae 7d3c
00000280: f526 d9bd 22f9 733e dee7 f9bd f53c d73b
00000290: 70e7 693d 06f3 59bd dd39 97bd 8e2c 2a3c
000002a0: 6a2e b1bd 1333 1b3e c102 463e b9b0 833e
000002b0: e9cc df3d 5029 98bd a28b 36be 1bf1 13be
000002c0: cc2d 103e 97b9 85bd b9b1 503e fb9a 06be
000002d0: 38c5 87be 57b8 523e f70c 0abe 55ef 0b3e
000002e0: 5caf 093e 8c4c d83d 2ca5 de3d 9749 b3bb
000002f0: 05b3 66be bae9 0cbd f9fe 173e 3210 393e
00000300: 4031 24be e7ab 723d 74e9 d13d ca43 f13b
00000310: cb62 c2bd 6946 50bd ca28 0ebe 831a 053e
00000320: bece 57bd afff 11bd 21d6 93bd 8332 773d
00000330: f6ae d13d cb35 453e 1ac7 2f3e 099f f2bd
00000340: b24c b5bd 47b7 03be aa57 673e 3c72 9a3c
00000350: bdc1 6b3e 3daf 48be 5265 98bd ae29 203e
00000360: ba01 57be dcae 21be 7c68 d2bd ca2b c0bd
00000370: 3403 1abe dbd5 1ebe 6cd3 4b3e b771 303e
00000380: 075a 323e 9b72 563e 3c3c 943d 9a74 b0bc
00000390: f339 8cbc 5dd7 7ebd 97ee 2a3e b3ec 463e
000003a0: 608d 2cbe 099a 76be 91c8 03be dcc0 36be
000003b0: cb8f a3bd f62b 993e f06d cd3d 6362 68bd
000003c0: 6478 56be 0083 fcbd 46f5 b43c a861 343e
000003d0: 1cd4 edbd fad7 c5bc 7423 e4bd ce00 2dbe
000003e0: a28a 2e3e d280 37be 3467 893d c728 80bd
000003f0: a5b6 913d e7f2 43be de23 763c 3dca c1bd

fc2.bias f4 [10]
-0.07270249 0.06509584 -0.06617414 -0.16290027 0.0131588625 0.09040755 -0.12783997 -0.11110047
0.11803008 -0.044380385
00000000: 0be5 94bd f850 853d 4f86 87bd 54cf 26be
00000010: 4598 573c 9827 b93d 7be8 02be a588 e3bd
00000020: c1b9 f13d 35c8 35bd
